part 2 : Practical Implementations of AI models/Task 1: Edge AI Prototype/recycle_model.tflite (tflite, 45912 bytes, 7 tensors)

arith.constant f4 [16]
000000 4c 89 e7 bb 43 b8 27 bb 46 12 a7 bb 02 fe 91 3b
       -0.0070659276 -0.0025592006 -0.005098614 0.004455329
000010 85 51 e5 ba 71 16 a2 39 38 da 98 3a 22 47 8e 3a
       -0.0017495608 0.00030915768 0.0011661714 0.001085494
000020 d8 1a 51 bb df 54 ee bb 8e 42 bc 3b d4 48 16 3c
       -0.003190687 -0.007273301 0.0057452386 0.009172637
000030 48 06 2f ba 66 d9 31 bb 97 2b d0 bb 06 4a fe bb
       -0.0006676656 -0.0027137636 -0.0063528526 -0.007760289

arith.constant1 f4 [16, 3, 3, 8]
000000 49 9f bc 3d 6c 27 9c bc aa 18 13 bd 8b c6 20 3e
       0.09210069 -0.019061767 -0.035912193 0.15700738
000010 56 cd cf bd 55 a8 bf bd 4c af 05 bd 39 39 96 bd
       -0.101465866 -0.09358279 -0.03263788 -0.07335133
000020 19 af 7f 3d be 7c 8c bb 1c bd 1c 3e fa 47 ac 3d
       0.062422846 -0.0042873314 0.15306515 0.08412166
000030 1f a0 f2 bd b2 38 c5 bd 19 6a 1b 3e 50 5f 57 3d
       -0.11846947 -0.096299544 0.15177192 0.05258113
000040 6d ee ea 3d 28 ce fc 3d 52 2c 06 3e bb 03 27 3e
       0.11471257 0.12344009 0.13102844 0.16310017
000050 28 db 73 3d 57 5c 4f bc 0c 91 6f bd 22 92 0c bd
       0.059535176 -0.012656293 -0.058487937 -0.03431905
000060 40 1e 1c be a4 49 f7 3d 18 00 51 bc 0b a1 29 be
       -0.15245914 0.12074593 -0.01275637 -0.1656534
000070 4e d6 ac ba d0 8a 57 bd 9d 14 16 3e 29 2f 05 be
       -0.0013186426 -0.052622616 0.14656301 -0.13006271
000080 3e fa cb 3d 06 9f 09 bd a6 a5 24 3d 0a c6 c7 3d
       0.09959839 -0.033598922 0.040197037 0.0975457
000090 e5 5a 63 3d 0d 74 04 3e 5b 1f 27 3e 17 c6 08 be
       0.055506606 0.12934895 0.16320555 -0.13356815
0000a0 ff 26 2c be cc be a5 bd cb 6b 7d 3c 00 7b 83 bc
       -0.16811751 -0.08093032 0.015467594 -0.016049862
0000b0 ae 78 29 bd 72 9a c9 3d 4b a2 ef bd 3a ed a9 3d
       -0.041374855 0.09843911 -0.11700877 0.082972005
0000c0 89 30 1e 3e 5b 86 45 bd 79 c0 c2 bd a2 e7 f0 3d
       0.15448202 -0.048223834 -0.095093675 0.117629305
0000d0 66 81 07 be c8 b3 72 bd d6 8a ff 3d 6c ce 2a 3d
       -0.13232955 -0.059253484 0.12477653 0.041700765
0000e0 2f 2e bc bd c0 b8 15 be d1 86 f6 bd 46 c2 a2 bd
       -0.09188496 -0.14621258 -0.12037433 -0.07947211
0000f0 dd ea a6 3d 29 40 06 be 0c e5 1c bd 91 fc 0d be
       0.08150265 -0.13110413 -0.038304374 -0.13865878
000100 c9 da 0a be 3f 84 b7 bc ef 07 d6 bd 00 08 70 bb
       -0.13560022 -0.022401927 -0.10450732 -0.0036625862
000110 7d c3 a2 bd 4b 2a e3 3d 0b dc 25 3e 6c fb 87 bc
       -0.07947443 0.11092051 0.16197221 -0.01659938
000120 d6 87 fa 3c e5 e1 31 3c 8f 49 ba 3d a6 65 db 3d
       0.03058235 0.01085708 0.090960614 0.10712747
000130 4e ce 97 bd bc 6e c6 3d ba 30 d7 3c 07 fa 3a 3d
       -0.07412396 0.0968909 0.026268352 0.0456486
000140 1c 92 f4 3d 30 f3 ea 3d 46 11 28 be 48 bc cb 3d
       0.11941931 0.114721656 -0.1641284 0.09948021
000150 6a d6 1f 3e 88 e1 1d be ed f9 26 be bc 5a 03 3e
       0.15609136 -0.15418065 -0.16306277 0.12827581
000160 b4 c6 fb bd 83 36 13 be ee 17 a0 bd f3 e8 17 be
       -0.12293759 -0.14376263 -0.07817064 -0.14834957
000170 6a 15 a4 3c 3b 22 9c bd ae a8 60 3d fe 22 00 be
       0.020029742 -0.076237164 0.054848365 -0.12513348
000180 b5 c5 e3 bd e1 b0 cf 3d 43 96 6a bd 70 15 ef 3c
       -0.11121694 0.10141159 -0.057272207 0.029185027
000190 3f 63 19 be 87 bc 04 be 71 01 7d 3d e3 2d 1a be
       -0.14979266 -0.12962542 0.061768953 -0.15056567
0001a0 ac e0 0e 3e e2 f6 e8 bd da d4 e0 3d 88 c4 12 be
       0.13952893 -0.11375214 0.10978098 -0.14332783
0001b0 d6 3a be bd 0f 89 d4 bd 5f 14 93 bc c7 9b 35 bd
       -0.09288566 -0.10377704 -0.01795405 -0.044338014
0001c0 b5 69 21 3e 1d 82 cc 3c 69 ce b0 bd 37 9b 87 bd
       0.1576298 0.024964387 -0.086331196 -0.06621402
0001d0 13 28 06 be 45 92 2e bd 49 c3 0a bb 3c 51 d3 3a
       -0.13101225 -0.042619962 -0.0021173528 0.0016122232
0001e0 7c ff c3 3d e5 f7 aa 3c 1c 49 d3 bd a1 b0 6d 3c
       0.09570214 0.020870158 -0.10316679 0.014507444
0001f0 1a b8 22 3d 48 4b 03 be ef 59 08 3e 1d ca 34 bd
       0.039726354 -0.12821686 0.13315557 -0.044138063
000200 02 d9 f6 bd d9 a7 24 3e dd 80 35 3a 7b 34 e4 bd
       -0.1205311 0.16079654 0.0006923804 -0.11142822
000210 db a1 32 bd 1f 3c df 3d 19 d7 2d be 9a 8a b6 3d
       -0.04361139 0.10900139 -0.16976584 0.08913155
000220 b6 51 09 3e a6 31 0f 3e c5 0d 85 3b eb 6b 1d 3d
       0.13410076 0.13983783 0.0040604793 0.038432997
000230 5a 27 c9 bd 88 44 4e 3b d9 6b 2a 3d 72 99 d2 bd
       -0.09821959 0.0031473953 0.041606758 -0.102831736
000240 57 f7 9b 3d 29 ec 96 3d b5 66 d1 bd 93 98 8b bd
       0.07615536 0.07369263 -0.10224668 -0.068162106
000250 59 c0 df 3d 5b f6 bb 3d 75 8c 48 3d 93 06 66 3d
       0.10925359 0.09177848 0.048962075 0.056158613
000260 19 0c eb bd f5 21 9c bd a3 26 b3 bd 24 c4 d1 bb
       -0.11476917 -0.07623664 -0.08747604 -0.0064015556
000270 8d 12 f6 bc 0c 12 99 3d a8 9d 15 3e 72 58 15 3e
       -0.030038143 0.07474145 0.14610922 0.1458452
000280 ea 81 16 be 25 f4 02 be b4 33 33 3e e9 4e e7 3c
       -0.14697996 -0.12788446 0.17500192 0.02823587
000290 2a 2c bd bc 4b 4c 2a be f7 ba f9 3d 56 b3 f9 3c
       -0.023092348 -0.16630666 0.12193864 0.030481022
0002a0 ae 4e 0b be bf c5 d2 3d 2e 74 a7 bd 9b c5 09 3e
       -0.13604233 0.10291623 -0.081764564 0.13454287
0002b0 f8 e6 2b 3d 4b fc 2b be 43 3b d6 bc 7c 6e 78 bc
       0.041968316 -0.16795461 -0.026151305 -0.01516306
0002c0 45 96 9a bd 27 49 1f 3c 88 4b f5 bd 11 70 bd bd
       -0.07548193 0.009722031 -0.11977297 -0.092498906
0002d0 4e 84 b0 3d 0e b4 0d be 89 5e 68 bd ab 1a 05 be
       0.08618985 -0.13838217 -0.05673078 -0.12998454
0002e0 73 93 5e 3b 0f 18 47 3d 4e 75 fb 3d 30 ec ea 3c
       0.0033962398 0.04860693 0.122782335 0.028677076
0002f0 8d d9 a7 3c b7 ed d5 3d 59 6f c9 bd 2c 0d e9 3d
       0.020489478 0.10445731 -0.09835691 0.113794655
000300 cf 7e f0 bc bf de 81 bd 01 eb 84 bd dd 73 0c be
       -0.029357342 -0.063413136 -0.06490136 -0.13716073
000310 1e 3a ae bd 54 03 fb 3d f4 9d 10 3e f5 b0 78 bb
       -0.08507179 0.12256494 0.14122754 -0.0037947271
000320 c4 53 90 3d 9a 6f 25 3e e4 f9 1d 3e d5 1e 0a 3e
       0.07047227 0.16155854 0.15427357 0.13488324
000330 a8 31 eb bd 1a e5 d1 3d 5f 49 dd 3d b3 8b 10 3e
       -0.114840806 0.10248776 0.1080501 0.14115791
000340 65 46 9b 3d 2e 18 cb bb 21 eb 12 be 03 7a 01 3e
       0.07581786 -0.006197951 -0.14347507 0.126442
000350 15 bd 2b 3e 6a 00 09 3e 6e 35 19 3e 61 90 03 be
       0.16771348 0.13379064 0.14961788 -0.12848045
000360 2f 99 03 3e 66 f0 9b bd 89 b0 ec bd 11 2a 08 3e
       0.12851404 -0.07614212 -0.11557109 0.13297297
000370 1b fd d3 3d 78 2c 22 be e4 09 55 bd 5c 99 f7 3d
       0.103510104 -0.15837276 -0.052011386 0.12089798
000380 eb 7a e3 3d f4 12 12 be 64 fd 8e 3c 06 cb ad bd
       0.11107429 -0.14265043 0.01745481 -0.08485989
000390 e9 8e 1b bd 38 a7 7c 3d 15 39 1f be a4 1f ad 3c
       -0.037978087 0.06168291 -0.15549119 0.021133251
0003a0 16 6f c6 3c 9e 81 05 be 0c c6 82 bd 67 08 4a bd
       0.024222892 -0.13037726 -0.06385431 -0.04932442
0003b0 69 e5 87 3d a8 16 f4 bc 74 62 29 3e a0 92 92 3d
       0.066355534 -0.02979596 0.16541463 0.07156873
0003c0 18 db 5a bd 3b 69 dc 3b 4c a8 81 ba 00 ef 8a 3c
       -0.0534316 0.0067264116 -0.0009892075 0.016959667
0003d0 ec aa 23 be 7c ed 0a be b9 b1 0e bc 3c 19 0d be
       -0.1598317 -0.13567156 -0.008709365 -0.13779157
0003e0 8a ab 13 3e 22 d6 00 3e 5b 7d 9f 3d 73 12 50 bd
       0.14420906 0.12581685 0.077875815 -0.050798845
0003f0 0f dd ee bb d6 92 a6 3b d9 15 cc bc 10 4b 0c be
       -0.007289536 0.005083422 -0.024912762 -0.13700509

arith.constant2 f4 [1, 16]
000000 d9 d3 55 be 0d 31 8e be e5 29 e6 be 96 bb 69 bd
       -0.20881595 -0.27771798 -0.44953838 -0.05706366
000010 47 c9 77 3e 14 7a 76 3e 7a fc c8 be 4d 11 85 be
       0.24197875 0.24070007 -0.39255124 -0.25989762
000020 e1 73 91 3e 92 d6 e2 be 0b c7 42 3e b6 63 de 3e
       0.2840872 -0.4430433 0.19021241 0.43435448
000030 3c 5f fa 3e de 6e ee be ec ee db 3e a3 ea d5 be
       0.48900783 -0.4656896 0.4295572 -0.41780576

arith.constant3 f4 [16, 576]
000000 b8 61 5f 3d fb 1b 85 bd 5e c6 c5 3d d0 fa d9 3d
       0.05453655 -0.064994775 0.09656976 0.10643542
000010 9e 80 c3 bc 08 85 48 bd d0 a4 69 3d bc 8c 9c 3d
       -0.02386504 -0.048954993 0.057041943 0.076440305
000020 01 4d 60 bd cc 16 a3 3d c8 11 3e bd 62 ea 3b 3d
       -0.054760937 0.079633325 -0.046403676 0.04587782
000030 66 74 a8 bd 0c 9c f7 bc ec 19 ee bc cd 92 a6 bd
       -0.08225326 -0.030225776 -0.029065095 -0.08133469
000040 48 32 42 3d 57 bf a6 bd 6c 6b 7a bd 49 89 06 bd
       0.047411233 -0.08141964 -0.0611376 -0.03284577
000050 fe db 98 ba 72 88 71 3d 77 62 82 bd 9f bb b5 3c
       -0.0011662242 0.058968015 -0.06366437 0.022184191
000060 8c ec 88 3c 74 17 8e 3d 1f d6 a9 bd a6 6b cc 3c
       0.016714357 0.06938067 -0.082927935 0.024953675
000070 02 bb 21 3d 74 53 8a 3d 2b 47 b8 bc b8 e1 ee 3c
       0.039484985 0.06754199 -0.022494873 0.029160365
000080 a9 11 61 3d 8f 7a 5c bd d2 ca ac 3d 23 21 ba bd
       0.054948483 -0.05382782 0.084371224 -0.090883516
000090 7a 33 6b 3c 8e f3 a4 bc 68 01 e4 bc 53 97 c7 3d
       0.014355535 -0.020135667 -0.027832702 0.0974566
0000a0 71 7b bf 3d 1e ad 64 bd 93 c0 bb 3c 8e 36 d8 3d
       0.093497165 -0.05582916 0.022918975 0.105572805
0000b0 20 07 40 3d ba 73 00 3d 2a dd 79 bd 7b 00 54 bc
       0.046881795 0.031360365 -0.061001934 -0.012939568
0000c0 43 bc 86 bc c8 43 9e bd d5 94 80 bd f8 a1 cc bd
       -0.016447192 -0.07727772 -0.062783875 -0.099918306
0000d0 7f 84 19 bd ac 9e 6f bd 3c 02 fe bc 57 15 a9 3d
       -0.037479874 -0.05850093 -0.031006925 0.082560234
0000e0 d5 da c2 bd d5 61 15 3d 2f b5 d9 3b ef a8 59 3b
       -0.09514395 0.036470253 0.006643913 0.0033212265
0000f0 a1 e9 99 bd 48 1b 49 3d d1 76 70 3d 00 db 96 ba
       -0.07515264 0.049098283 0.058707062 -0.0011509359
000100 da ec 84 bd 20 b4 17 3d eb 3b ab 3d 91 cc 38 bd
       -0.06490488 0.037037015 0.08361038 -0.045116965
000110 9a a6 b8 3c da de bb 3d aa a8 07 3d 1b 01 a6 3d
       0.02254038 0.09173365 0.033119835 0.081056796
000120 7c 0c 44 3d 62 27 43 bc ca aa ad 3d 09 ec 33 bb
       0.04786347 -0.011911245 0.08479841 -0.002745392
000130 20 9e 7e 3c 40 41 97 bc b1 ad 0a bb 2e 45 ae bd
       0.01554063 -0.01846373 -0.0021160657 -0.08509289
000140 85 e0 ad 3d c3 e5 bc 3d 7f 7d 59 bd 9b 00 5d bd
       0.08490089 0.09223511 -0.053098198 -0.053955656
000150 4d 81 95 3c 22 1d e7 bc df 46 b3 3d 8e 30 dd bb
       0.018250132 -0.028212134 0.08753752 -0.006750173
000160 0e 88 ba bd 06 b1 8a bd ea 0f 9e 3d 86 1d 94 bd
       -0.091079816 -0.06772046 0.07717879 -0.07232194
000170 39 3e 2b bd 90 ad 5a bd 7c 51 8a 3d 83 06 2f bd
       -0.041807387 -0.05338818 0.06753823 -0.04273082
000180 78 36 67 bd 05 a7 84 3d 28 f0 98 3d b9 a9 b3 3d
       -0.05644843 0.06477169 0.07467681 0.087726064
000190 55 0d b0 3d 1e 9e 73 bb 50 f3 64 3d f7 9a b1 3d
       0.08596293 -0.0037173103 0.055896103 0.08672135
0001a0 48 15 74 3d 92 00 af bd 2a 1f 8d bc c5 36 38 3c
       0.059590608 -0.08545031 -0.017226774 0.011243527
0001b0 40 2f 87 bd 08 46 8a 3c 82 6f d6 3c b1 72 3b 39
       -0.06600809 0.016879097 0.026176218 0.00017876436
0001c0 a5 f2 9e bd 95 81 49 bd af 04 ee 3c 2d 2f bd bd
       -0.077611245 -0.049195845 0.029054968 -0.09237514
0001d0 50 aa 74 3d d5 71 8f bd c1 32 3b 3d d7 20 fd bc
       0.059732735 -0.070041336 0.0457027 -0.030899448
0001e0 dc 70 68 3d ba 67 84 3d aa 3b c2 3d c8 16 c3 3d
       0.056748256 0.06465097 0.09484036 0.095258296
0001f0 f6 02 80 bd 59 8f 47 3d 8d 24 8a 3d f4 28 80 3d
       -0.06250565 0.04872069 0.06745253 0.06257811
000200 0a 2a 60 3c 2b 73 c6 3d 2a 2a ac 3d 35 d3 fc 3c
       0.013681898 0.09689935 0.0840648 0.03086243
000210 f2 62 cc 3d 5a df d2 3b 9f 23 80 3d 95 1c c3 3c
       0.0997981 0.006435317 0.06256794 0.02381734
000220 79 b4 c4 bd a8 95 8d bd 20 b9 9b 3d 07 4c 8b 3d
       -0.09604735 -0.0691331 0.07603669 0.068016104
000230 bc 1d 53 3d 38 e4 08 3d 40 b6 c4 3b 81 21 98 3d
       0.05154203 0.03342077 0.006003171 0.07428265
000240 ec 3e b6 3c 74 04 18 3c 96 94 a8 bc 73 63 93 3d
       0.0222468 0.009278405 -0.020578664 0.07196703
000250 44 8a af bd 2b 8d 2e bd af cc 32 bd f7 3b 0a 3d
       -0.08571294 -0.042615097 -0.043652233 0.033748593
000260 d5 47 9b 3d 19 81 e3 bc 34 be d7 3a 83 16 ba 3d
       0.0758206 -0.02777152 0.0016459883 0.09086325
000270 3f 63 cd bd 92 b1 c0 bd 57 c7 3f 3d ec 86 93 bd
       -0.10028695 -0.09408869 0.046820965 -0.07203469
000280 94 b0 e7 bc df 62 48 3d f9 6d 87 bd 52 68 4d 3c
       -0.028282441 0.048922416 -0.066127725 0.012537079
000290 63 ac ba bd 57 7a 08 bd 0e d2 99 bc e3 7b fa 3c
       -0.091149114 -0.033319797 -0.01877692 0.030576652
0002a0 9f 3c be bd f8 ad 9f bb 4e b5 01 3d 32 57 32 bd
       -0.09288906 -0.0048730336 0.031667046 -0.043540187
0002b0 9d 01 a1 3d 58 16 25 bd 96 21 3b bc 14 21 6a 3d
       0.07861636 -0.04030451 -0.011421582 0.057160452
0002c0 c2 68 36 3d ce 4b 89 3d b5 e5 aa bd cf de 03 bd
       0.0445335 0.06703912 -0.083445944 -0.03219491
0002d0 88 d3 3e 3d 25 ab 84 3d ed 29 51 3d 5c a8 ac 3d
       0.04658845 0.06477956 0.051065374 0.084305495
0002e0 24 ac 3a 3d c6 23 93 3d 24 06 aa bd e3 3d 7e bc
       0.045574322 0.071845576 -0.083019525 -0.015517685
0002f0 3a 95 29 bd 28 6d 1f 3d 8b 31 49 3c 8c f4 c2 bd
       -0.04140208 0.03892246 0.012279878 -0.095193
000300 f0 af 3d 3d 7d 55 cb 3d 3f 84 5d bd c9 dc 54 bc
       0.046310365 0.09928415 -0.054081198 -0.012992092
000310 cd 32 9d 3d c0 7a c6 bd d9 99 a8 bc 1b b6 bd bd
       0.07675705 -0.096913815 -0.020581173 -0.092632495
000320 55 6e 90 3d 0c d7 9d bd a3 f5 9b 3d 20 cd 89 bd
       0.07052294 -0.077070326 0.07615211 -0.067285776
000330 62 f2 ba 3d a0 f6 b9 3b 6b e6 51 bd 0c f5 75 3d
       0.09128262 0.005675152 -0.051245134 0.060048148
000340 5c 85 24 bb 68 cb b1 3d 49 ba 8e 3d 3b 4f 85 bd
       -0.0025103902 0.08681375 0.06969125 -0.06509253
000350 32 fd 92 bd 4f fc b2 bd b2 ef 61 3d d8 08 91 3c
       -0.071771994 -0.0873953 0.055160232 0.017704412
000360 8f 77 cc bd bd f7 92 3d 0f 21 a4 3d 6f 33 aa 3d
       -0.099837415 0.071761586 0.08014118 0.083105914
000370 1e c9 c7 bd 50 93 c2 bd 26 15 43 3d 09 80 f1 bc
       -0.09755157 -0.09500754 0.04762759 -0.029479997
000380 99 55 64 3b 40 bc 4d bd a9 52 2b bc e7 42 a5 3d
       0.003484106 -0.050228357 -0.010456719 0.08069401
000390 f0 c2 c7 3d 40 90 82 bd 3b de d8 3b cc 31 6f 3d
       0.09753978 -0.0637517 0.006618289 0.0583971
0003a0 b2 6f 87 3d 77 37 77 3c 55 ba a4 3c 1d a9 3a bc
       0.06613101 0.015088907 0.020108381 -0.011392859
0003b0 0c 06 6e bd e8 b3 86 bc 6f 04 f4 bc c0 5f 80 3d
       -0.058111235 -0.016443208 -0.02978727 0.06268263
0003c0 f9 b9 84 3c 10 39 7c 3c c9 59 d7 bd 84 d7 7b bd
       0.01620196 0.015394464 -0.10515172 -0.06148483
0003d0 c4 54 c5 3d 89 29 a6 3c 4f 2b 74 3b 7e 0b 7e bc
       0.096353084 0.020283477 0.003725726 -0.01550567
0003e0 0d 14 95 bd 02 f2 07 bb 93 f3 46 3d 6f ae 48 3c
       -0.07279215 -0.0020743613 0.048572134 0.012248619
0003f0 a1 34 b5 bd c0 94 85 3a 0a dd 6f bc 2b e7 77 ba
       -0.08847929 0.0010191426 -0.014640102 -0.0009456749

arith.constant4 f4 [16]
000000 c8 a9 16 b9 01 4a c4 3a de 43 1a 39 4a 3f 1b 3a
       -0.00014368363 0.0014975668 0.00014711867 0.00059222116
000010 8b 15 1a bb 00 00 00 00 c5 1f 38 bb 59 77 85 39
       -0.0023511376 0.0 -0.0028095108 0.00025456658
000020 d4 1c 30 b9 30 4a 62 3a 8d ab 24 bb 38 54 61 3b
       -0.00016795407 0.00086322706 -0.0025126666 0.0034382474
000030 77 dc 9f bb 00 00 00 00 90 c6 95 ba 89 3c 04 bb
       -0.0048785764 0.0 -0.0011426974 -0.0020177683

sequential_1/conv2d_1/convolution f4 [8, 3, 3, 3]
000000 2c aa 0b be de ab a9 bd df ba 56 3e 4e 7e e7 bd
       -0.13639134 -0.08284734 0.20969723 -0.113033876
000010 a3 fb 47 3e 73 b4 5e 3e 34 38 52 be 37 6a 78 be
       0.19529586 0.21748523 -0.20529252 -0.24259268
000020 7c ac 36 3e d0 97 66 3e 22 3e 8e 3d 43 a3 c2 bd
       0.17839235 0.2251885 0.06945445 -0.09503796
000030 b7 b3 31 3d 12 55 15 bc e5 a9 1e 3e e4 bc 81 3d
       0.04338428 -0.009114521 0.15494497 0.06334856
000040 bc 68 5e 3e 77 b0 73 be 82 3f 28 bc 83 26 2f be
       0.2171964 -0.23797785 -0.010269048 -0.17104535
000050 d5 6f 78 3e b1 02 2d 3d 83 eb 59 3d c2 cd 3d 3e
       0.2426141 0.042238895 0.053203117 0.18535522
000060 81 7b 66 bd 33 a3 71 be 2e 17 1e 3d 82 6c 3c bd
       -0.056270126 -0.23597412 0.038596325 -0.04600192
000070 b2 60 b8 bd df c0 89 3d cc bb a2 3d a0 30 6f 3e
       -0.09002818 0.0672624 0.07945976 0.23358393
000080 c7 8c 33 bd 67 b8 09 3e bd ef 9c bd 55 f4 28 3e
       -0.043835428 0.1344925 -0.07662914 0.16499455
000090 40 20 2a bd 63 e8 0a be f6 ce b4 bd dd 31 07 3d
       -0.041534662 -0.13565211 -0.08828537 0.033006538
0000a0 2f f8 09 3e dd c6 39 3e a6 81 0a be 8c c3 73 bd
       0.13473581 0.18142267 -0.1352602 -0.05951266
0000b0 53 fa 25 bb b7 ef ab 3d c5 57 73 3e 44 21 12 3e
       -0.0025326207 0.08395331 0.2376395 0.14270502
0000c0 f3 4f 1c bc 5f 69 85 3b 46 cd b2 bd 18 94 c4 bd
       -0.009540546 0.004071399 -0.08730559 -0.09598559
0000d0 e6 5b 0e bd 48 00 80 be 62 1a 68 3e ab ba 80 3d
       -0.03475561 -0.25000215 0.22666314 0.06285604
0000e0 57 9a 0d be d2 d8 37 be fd 9f a7 bd 12 db 25 3d
       -0.13828407 -0.17953804 -0.08184812 0.040492125
0000f0 68 21 46 be 9d 0c 41 bd c9 c8 69 3e e8 12 5f be
       -0.19348681 -0.04713117 0.228305 -0.21784556
000100 12 9e 2f 3d 17 dd f5 3d 94 52 c2 3c a3 6b 5e be
       0.042875357 0.1200506 0.023721017 -0.21720748
000110 a5 db bb bc 83 de f4 bc 8f e1 06 3e 9e 41 58 3e
       -0.022931883 -0.029891258 0.13171981 0.21118781
000120 e7 94 a2 3c ef a3 28 3e a2 eb 36 3c 21 e5 fc bd
       0.019846393 0.16468786 0.011164578 -0.1234839
000130 4e ee 24 bd ef 64 c8 3d 8f 9c 04 bd 5f b3 e3 bd
       -0.040266328 0.097848766 -0.03237587 -0.11118197
000140 16 dd fa 3b 12 54 fe 3d 79 cd 82 be 1c 4c 79 be
       0.00765575 0.12418379 -0.25547388 -0.2434544
000150 1c a6 fd bd 70 d2 23 be f4 3c 39 bd 4d ab 95 3d
       -0.123851985 -0.15998244 -0.045224145 0.07308064
000160 9c d2 d1 bc 08 6e 10 3e 20 0b fa bc 88 ee 72 be
       -0.025613122 0.14104474 -0.030522883 -0.23723805
000170 ad df 42 bd 79 2d 06 bd 92 6e d4 bd 8b 06 61 3e
       -0.047576595 -0.03275821 -0.10372652 0.21975152
000180 98 ab 48 be 1c 90 10 bd b5 ae b3 3d a4 16 63 be
       -0.19596708 -0.035293683 0.08773557 -0.22176605
000190 08 46 03 3d 79 29 18 3d c8 89 44 3d 50 fa dd bd
       0.03204921 0.037148926 0.04798296 -0.10838759
0001a0 74 c2 75 be 68 63 ab bd e5 a8 4f 3d 11 01 4a be
       -0.23999959 -0.083685696 0.05069818 -0.1972697
0001b0 57 63 0d 3d 65 0c c9 3d aa 36 6d be bf 52 5f be
       0.034518566 0.09816817 -0.23165384 -0.21808909
0001c0 e7 1e 8a 3d b8 33 59 3e 8a 74 5e be fb 62 90 bd
       0.067441754 0.21211135 -0.21724144 -0.07050129
0001d0 6e da ba 3a 5b 50 ff bd 18 7e 55 3e 46 01 3a 3e
       0.0014255771 -0.124664985 0.20848882 0.18164548
0001e0 5b 02 4f be 26 f3 26 3d 1d 7b de 3d 0a b0 30 bc
       -0.20215742 0.04075923 0.10863326 -0.0107841585
0001f0 e1 bb 66 be e2 90 3d bc 0d 4e fc 3d 37 81 2f bc
       -0.22532608 -0.011570187 0.123195745 -0.01071196
000200 36 b3 81 3d 83 d2 e7 bc 1f 67 16 3e d9 ef f9 bd
       0.0633301 -0.028298622 0.14687775 -0.122039504
000210 a6 2e 15 3d 25 93 f9 3b 2a 58 6e bd 63 bd 73 bb
       0.03642144 0.007616418 -0.05818955 -0.003719174
000220 d2 1e 05 3e f8 fd 7a 39 93 dc a2 3d 1a 22 cb bb
       0.13000038 0.00023936469 0.079522274 -0.0061991336
000230 ad 14 34 be d3 d7 04 be c9 dc 37 3e aa 6e 48 3d
       -0.17586012 -0.12972955 0.17955317 0.048933662
000240 75 b9 c9 3d e4 e6 5c be 2a d3 7a be 1a 6f 2a 3e
       0.09849826 -0.21572453 -0.24494615 0.16643944
000250 dd d4 00 3d b4 aa 08 be a7 79 1e be c8 40 a6 3d
       0.031453002 -0.13346368 -0.15476094 0.08117825
000260 99 6b 20 3e 1b a2 4d be 2e 40 48 be 19 3d aa 3d
       0.15666045 -0.2008137 -0.19555733 0.08312435
000270 33 e6 22 3d b8 c6 92 bd 2c f4 fe bd 22 4c 72 bd
       0.039770316 -0.07166809 -0.12448916 -0.059154637
000280 fc dc 32 be 4f a0 75 bd af d1 43 3e 95 ff 16 be
       -0.17467111 -0.059967335 0.19122957 -0.14745934
000290 3e 44 dd 3c 19 e9 1f be f4 37 4f be 77 28 34 3d
       0.02701008 -0.15616263 -0.20236188 0.043983903
0002a0 6a 77 d9 bc 6f 63 0c be 3b 30 4a 3d 20 6a 6f be
       -0.026546199 -0.13709806 0.049362402 -0.23380327
0002b0 50 24 3a be 8f 0c 00 be da 5a 2d be 88 85 02 3d
       -0.18177915 -0.1250479 -0.16929188 0.031865627
0002c0 00 af b3 bd 31 ff ed 3d f5 04 d3 bd cc b9 28 be
       -0.08773613 0.116209395 -0.1030368 -0.16477126
0002d0 b2 96 49 3e 5b 5c 91 3c 8c 5f 2a be 55 99 80 bd
       0.19686392 0.017744234 -0.1663801 -0.06279246
0002e0 0a 72 0b ba 03 7d e7 bd bd 6c 19 be fd 04 34 3e
       -0.00053194223 -0.11303141 -0.14982887 0.17580028
0002f0 84 89 11 3e 25 b3 2e 3e 57 0e 42 3e 10 6a 17 3e
       0.14212614 0.17060526 0.18950783 0.14786553
000300 b8 f6 22 3d 1c f2 43 39 35 56 25 3e 49 68 58 be
       0.03978607 0.00018686842 0.16146167 -0.21133532
000310 01 b7 95 3d 4a 41 fa 3d ae 94 80 3e d4 79 da 3c
       0.07310296 0.12219484 0.25113434 0.02666942
000320 5a 97 17 be bd ae 94 bc e0 64 58 3e da 92 5e 3e
       -0.1480383 -0.018149728 0.21132231 0.21735707
000330 b2 2c 86 bd b5 b1 b0 bd 72 e1 16 bd a9 9a 7a bd
       -0.06551494 -0.08627645 -0.036836095 -0.06118265
000340 d9 6d 4d be b9 c6 64 be 70 af d3 bd f9 ea 5d 3e
       -0.20061435 -0.22341432 -0.103361964 0.21671666
000350 b5 f6 ec bc da c4 3d 3e 86 66 61 3e 93 56 43 be
       -0.028926233 0.18532124 0.22011766 -0.19075994

sequential_1/conv2d_1/Relu;sequential_1/conv2d_1/BiasAdd;sequential_1/conv2d_1/convolution; f4 [8]
000000 15 53 b8 bb 80 32 8f ba fd a2 8b 3b eb 15 b6 bb
       -0.0056251385 -0.0010925084 0.004261373 -0.005556812
000010 30 5d 2e bb 68 00 d6 bb bf bd 0a 3c 90 c0 0b 3a
       -0.0026605837 -0.00653081 0.008468091 0.0005331123
